Face+Chat/chatbot_model.pth (torch, 59933 bytes, 6 tensors)

fc1.weight f4 [128, 43]
-0.14622709 -0.13657661 -0.08491695 -0.024171278 -0.044498995 -0.10388036 -0.03969135 -0.040855438
-0.002974636 0.028807204 -0.05710504 -0.07534378 -0.14101215 -0.07079709 -0.10778768 0.20873463
-0.13271031 -0.14644712 0.122396484 -0.13436851 0.10222092 -0.07521598 -0.015717708 0.008923334
0.13772938 -0.14387515 0.11127274 -0.09599528 -0.0036761165 -0.11981715 -0.031197054 -0.014576419
-0.08886414 0.094765544 0.043009613 -0.0028120577 -0.102150455 0.05893293 0.003771171 -0.08320452
-0.020605981 0.061447233 -0.09392533 -0.2116622 0.007940767 0.078292556 0.029628597 -0.099616125
0.09839158 0.07413369 0.0180075 -0.07849055 0.08721617 -0.0027876522 0.09283703 0.08073315
0.053405073 0.023331128 0.218921 -0.14940283 0.16617075 0.1244955 0.018828202 0.15578578
0.11071472 -0.020058502 -0.054430388 -0.06927666 -0.098904416 -0.23201452 0.034535695 0.04285143
-0.10126104 0.052127838 -0.067648076 -0.098596 -0.12093254 -0.035125017 -0.014531419 -0.10465463
-0.07133999 -0.08775231 -0.10267373 0.083104864 -0.028865986 0.16966613 -0.08284611 0.24360171
0.06266266 0.07774243 -0.13875815 -0.02399529 0.17076355 0.026663477 -0.13909365 -0.061638154
0.10715114 0.07477752 0.06303653 -0.07077242 0.04782882 0.11998377 0.17432347 -0.014448498
-0.055664256 -0.10080316 -0.04612133 -0.14642431 -0.13376191 -0.012246547 0.021696165 0.0031276494
0.055991765 -0.1268498 -0.1453833 0.13248122 -0.045173995 -0.011917716 0.0054133814 -0.07898816
0.09142348 -0.045441065 -0.016090393 0.03571917 -0.055246443 0.08607953 -0.08822711 0.14120296
0.0932905 0.07724951 -0.06846891 0.11852307 0.19866222 -0.090896614 -0.016371626 0.17952615
0.19084285 -0.17796661 0.18281554 0.20699708 -0.1335378 0.02698067 -0.051578246 0.10640541
-0.12168906 0.023837637 -0.043309696 -0.061008625 0.0048651956 -0.020344075 0.2110424 0.10919359
-0.12916669 0.13207869 0.1613127 0.05147804 0.16386978 0.14201881 0.029119005 0.1768912
0.07702288 -0.09922043 0.1792315 0.014770221 0.07110536 -0.15230998 0.109298214 -0.10002489
-0.10517689 0.1431192 0.06852193 -0.09728732 -0.03864666 0.0042195925 -0.10251133 0.12310831
0.04723537 0.09023217 -0.03668177 0.13663144 -0.14729911 0.085432075 0.108494736 0.12451075
0.0072626313 0.17231123 -0.106858104 -0.051421292 -0.0034618732 -0.14723375 -0.055958815 -0.0023344674
0.043100227 0.12174676 0.015539624 -0.14107779 0.22031425 0.028186547 0.054980323 -0.0036102566
-0.017707512 0.22949101 0.0587213 -0.093263745 -0.10751903 0.0315617 -0.02784013 0.08931439
0.014861256 -0.11815418 -0.11250567 -0.0036059502 -0.040420838 0.15121439 0.005122649 -0.045008127
0.049570188 -0.11395237 -0.015243065 0.011609793 0.017507318 -0.10151173 -0.10246814 0.098034926
0.020387016 -0.08868291 -0.031152867 0.10109943 -0.083834104 -0.0731115 0.22948605 -0.07167417
0.18921478 -0.113605455 0.140497 -0.03350537 -0.006515589 0.11892366 -0.011656599 -0.0029270947
0.039465953 0.09246934 0.09457916 -0.06338064 -0.11423147 -0.019610643 -0.12294808 -0.11417741
-0.052009936 -0.158562 0.058162943 -0.038208507 0.10702212 -0.0747507 -0.18835612 -0.121070564
00000000: 8ebc 15be bdda 0bbe f0e8 adbd d802 c6bc
00000010: 9444 36bd 3abf d4bd 6693 22bd 0858 27bd
00000020: 1cf2 42bb 16fd eb3c f9e6 69bd d74d 9abd
00000030: 7d65 10be 11fe 90bd cabf dcbd 88be 553e
00000040: 36e5 07be 3cf6 15be 02ab fa3d e697 09be
00000050: 3459 d13d d60a 9abd 6cc2 80bc 2d33 123c
00000060: ee08 0d3e 0254 13be f6e2 e33d 2c99 c4bd
00000070: 00eb 70bb b262 f5bd f790 ffbc efd1 6ebc
00000080: 67fe b5bd 7014 c23d d92a 303d 804a 38bb
00000090: 4234 d1bd a863 713d c025 773b 2267 aabd
000000a0: e0cd a8bc 18b0 7b3d ec5b c0bd fabd 58be
000000b0: fe19 023c d957 a03d acb7 f23c 8a03 ccbd
000000c0: 8681 c93d 67d3 973d 7784 933c a7bf a0bd
000000d0: 649e b23d 0bb1 36bb 5721 be3d 6c57 a53d
000000e0: 47bf 5a3d ec20 bf3c d42c 603e 0efd 18be
000000f0: aa28 2a3e 7ff7 fe3d 9a3d 9a3c 4f86 1f3e
00000100: 66be e23d ba51 a4bc 66f2 5ebd ece0 8dbd
00000110: 668e cabd 3795 6dbe 4d75 0d3d fb84 2f3d
00000120: f361 cfbd 0084 553d 138b 8abd b3ec c9bd
00000130: 7bab f7bd 40df 0fbd 3015 6ebc 2b55 d6bd
00000140: b31a 92bd 7cb7 b3bd 9b46 d2bd e232 aa3d
00000150: 5c78 ecbc f5bc 2d3e 39ab a9bd ba72 793e
00000160: 4855 803d 6c37 9f3d 9e16 0ebe c591 c4bc
00000170: a4dc 2e3e 5d6d da3c 916e 0ebe 4a78 7cbd
00000180: 0f72 db3d f524 993d 4c19 813d 21f1 90bd
00000190: 27e8 433d 0dba f53d da81 323e 65b9 6cbc
000001a0: 3400 64bd e371 cebd b8e9 3cbd 41f0 15be
000001b0: e2f8 08be bea5 48bc 28bc b13c 40f9 4c3b
000001c0: 9f57 653d eae4 01be 5cdf 14be 28a9 073e
000001d0: 5e08 39bd 8642 43bc bc62 b13b 8bc4 a1bd
000001e0: 3c3c bb3d 6920 3abd 00d0 83bc 444e 123d
000001f0: 184a 62bd 774a b03d 6ab0 b4bd 8297 103e
00000200: 170f bf3d fe34 9e3d 6e39 8cbd 39bc f23d
00000210: 1c6e 4b3e 0128 babd ca1d 86bc b4d5 373e
00000220: 4f6c 433e e13c 36be ff33 3b3e 0bf7 533e
00000230: 22be 08be 9106 dd3c b643 53bd 14eb d93d
00000240: 1d38 f9bd 2647 c33c 8265 31bd 2ee4 79bd
00000250: 386c 9f3b 9ea8 a6bc 801b 583e e4a0 df3d
00000260: 4644 04be a33f 073e 282f 253e a3da 523d
00000270: 7bcd 273e 616d 113e fb8a ee3c f722 353e
00000280: 2cbe 9d3d 1534 cbbd 7688 373e ccfe 713c
00000290: b09f 913d 26f7 1bbe bed7 df3d d9d9 ccbd
000002a0: fb66 d7bd d78d 123e 3a55 8c3d 933e c7bd
000002b0: f64b 1ebd 8244 8a3b 76f1 d1bd 3620 fc3d
000002c0: e079 413d a5cb b83d a03f 16bd 1de9 0b3e
000002d0: 94d5 16be 03f7 ae3d 7d32 de3d 7eff fe3d
000002e0: 5efb ed3b 5b72 303e 6cd8 dabd 229f 52bd
000002f0: 98e0 62bb 72c4 16be 1235 65bd ddfd 18bb
00000300: dd89 303d 5e56 f93d e899 7e3c b276 10be
00000310: 0f9a 613e 79e7 e63c 0c33 613d 0e9a 6cbb
00000320: 580f 91bc b1ff 6a3e bf85 703d 1001 bfbd
00000330: f032 dcbd d746 013d fc10 e4bc 77ea b63d
00000340: a07c 733c d2fa f1bd 5f69 e6bd ce51 6cbb
00000350: 5290 25bd f2d7 1a3e e5db a73b 715a 38bd
00000360: 1c0a 4b3d dc5f e9bd 0cbe 79bc 0037 3e3c
00000370: 826b 8f3c 62e5 cfbd d1da d1bd 89c6 c83d
00000380: ac02 a73c 639f b5bd 4c34 ffbc 380d cf3d
00000390: 37b1 abbd 7bbb 95bd 64fe 6a3e e8c9 92bd
000003a0: 85c1 413e faa9 e8bd 72de 0f3e ed3c 09bd
000003b0: b980 d5bb 3f8e f33d 52fb 3ebc 80d4 3fbb
000003c0: 0da7 213d 9160 bd3d b8b2 c13d b5cd 81bd
000003d0: 30f2 e9bd 80a6 a0bc 34cc fbbd d9d5 e9bd
000003e0: 5f08 55bd 145e 22be 443c 6e3d 8680 1cbd
000003f0: 6a2e db3d e516 99bd 6de0 40be d8f3 f7bd

fc1.bias f4 [128]
0.04059249 0.17699371 0.050922338 0.119796626 0.033189762 0.08770754 0.06710575 0.19066468
0.14348559 0.09504959 0.20181164 -0.13805386 0.119965106 -0.0122782225 0.051499967 -0.035603065
0.117205724 0.11781033 -0.05814722 -0.063177384 0.024305437 0.117419146 0.14304106 0.088218264
0.29730773 0.22012052 0.19646868 0.13424984 0.01968557 0.17424548 0.026095076 0.051785372
0.07104308 0.10243683 0.15385085 0.102393314 0.1467899 -0.022994297 0.13229273 0.1167267
-0.07415744 0.16359751 0.030302212 0.117341064 0.08240343 0.09093651 0.09381012 0.1933097
0.17484774 0.1868185 0.022945404 0.1711589 0.12690519 0.18577853 -0.059494354 -0.08789067
0.09596137 0.18670785 0.1563594 0.1598582 -0.071343996 0.0213451 0.041980598 0.13776606
0.1750792 0.015186894 0.13075632 0.13698737 0.23795886 0.094911 0.24975508 -0.021227164
0.19883369 0.09692801 -0.022248173 -0.06922677 0.047209222 0.1577177 0.046331093 -0.021398537
0.06483885 -0.0672483 -0.073726915 0.016766438 0.0045712893 -0.10218254 0.15577365 -0.026241789
0.10549163 0.0476783 0.11623861 0.08210561 0.11374419 0.19779114 0.20259857 0.21233875
-0.008588627 0.0011470341 -0.03380445 0.21487333 0.10409892 0.10693783 0.1646056 0.16311839
0.044287097 -0.047932044 0.14760745 0.18418792 -0.05149647 0.055883523 -0.02806472 0.14215793
0.0640853 0.08869925 0.10451907 0.10338725 0.06761055 0.15858378 0.06586351 0.036059577
0.15075469 0.13250723 0.08639555 0.13710164 0.028234102 0.045000095 0.038311906 0.10307068
00000000: 5044 263d d73d 353e f193 503d ef57 f53d
00000010: fdf1 073d 03a0 b33d bd6e 893d 9a3d 433e
00000020: e3ed 123e 5ca9 c23d b6a7 4e3e fe5d 0dbe
00000030: 44b0 f53d 992a 49bc a1f1 523d 85d4 11bd
00000040: 8e09 f03d 8b46 f13d c82b 6ebd 2563 81bd
00000050: 321c c73c 7379 f03d 5b79 123e c7ab b43d
00000060: b838 983e 4667 613e 162f 493e ca78 093e
00000070: a243 a13c 686d 323e 57c5 d53c e61c 543d
00000080: 097f 913d 67ca d13d 148b 1d3e 96b3 d13d
00000090: 1750 163e 895e bcbc bf77 073e 680e ef3d
000000a0: dbdf 97bd 1b86 273e 583c f83c 8350 f03d
000000b0: 21c3 a83d ec3c ba3d 851f c03d faf2 453e
000000c0: 490b 333e 594d 3f3e 00f8 bb3c 4744 2f3e
000000d0: 6ff3 013e ba3c 3e3e 5ab0 73bd 0600 b4bd
000000e0: 6587 c43d 5830 3f3e ae1c 203e deb1 233e
000000f0: cd1c 92bd ebdb ae3c d9f3 2b3d 8c12 0d3e
00000100: f647 333e 73d2 783c fce4 053e 6b46 0c3e
00000110: 7dab 733e b360 c23d ccbf 7f3e 97e4 adbc
00000120: 0f9b 4b3e 3182 c63d cd41 b6bc c4c6 8dbd
00000130: 755e 413d c080 213e acc5 3d3d fc4b afbc
00000140: 3bca 843d 7ab9 89bd 23fe 96bd c559 893c
00000150: c1ca 953b 1445 d1bd 2183 1f3e 05f9 d6bc
00000160: ff0b d83d 524a 433d 820e ee3d fc26 a83d
00000170: b7f2 e83d c389 4a3e 0076 4f3e 546f 593e
00000180: 50b7 0cbc 1458 963a 8976 0abd c107 5c3e
00000190: d131 d53d 3902 db3d 5f8e 283e 8208 273e
000001a0: 6366 353d 6454 44bd 6826 173e c29b 3c3e
000001b0: f6ed 52bd 1fe6 643d fce7 e5bc d991 113e
000001c0: 273f 833d f4a7 b53d 180e d63d b2bc d33d
000001d0: 6677 8a3d c963 223e 73e3 863d 35b3 133d
000001e0: 705f 1a3e faaf 073e 26f0 b03d 5f64 0c3e
000001f0: 344b e73c 0552 383d f2ec 1c3d b816 d33d

fc2.weight f4 [64, 128]
-0.09864275 -0.032507934 0.037844 -0.016337281 0.009304513 -0.18876542 0.10271972 0.05258505
-0.010081378 -0.20400344 -0.034100723 0.08055083 0.14314349 -0.014159521 -0.10972936 0.10878669
-0.037196815 0.058878105 0.048791405 -0.07815322 0.047663942 -0.06059255 0.07909864 -0.022385802
-0.004947454 0.10169316 0.09852668 -0.023440123 0.02537235 -0.08244045 -0.10637102 0.048155133
0.022569384 0.12853992 -0.026488736 0.055903763 0.02969038 -0.08087713 0.05486213 0.005820681
-0.050948292 0.031868283 -0.03443537 0.09680657 0.11063786 -0.041564748 -0.06409877 0.0006078901
0.02611579 -0.002383756 0.15862414 0.019710997 -0.00324244 -0.013683852 0.042378098 0.12615106
0.004385797 -0.017794514 -0.061970964 0.05257751 -0.17563741 -0.060644444 0.06499088 -0.012009159
-0.018117247 0.03727902 0.11492542 0.015387136 -0.12455529 -0.10351356 0.009686275 0.07444224
-0.010699508 -0.09263864 0.065615974 -0.14913711 0.10928544 0.11763767 -0.01254058 -0.02395957
-0.13965662 -0.0074562477 0.07899776 0.07763438 0.1455793 0.07080125 0.047630187 -0.10619481
0.15473914 0.078696586 -0.002965608 0.044978842 -0.06895173 0.10077897 -0.015799932 0.008715243
-0.00034803225 0.04928221 0.15130644 -0.05606754 0.0973403 0.10903909 -0.049842723 0.04056322
0.13979901 -0.03199589 -0.048247874 -0.001670053 0.055890393 0.1326509 0.011849747 -0.02258403
-0.004692335 0.09083111 0.007882721 0.074840106 0.077831045 -0.051257055 0.08124349 0.08072939
0.067468084 -0.006749718 0.030941086 0.107144095 0.09224008 0.083403446 -0.05515006 0.13006717
0.050293833 0.14090253 0.13294145 0.031557858 -0.0013168202 0.063278645 -0.0227081 -0.008497297
0.090458736 0.03484913 0.13191287 -0.011041381 0.0064981943 -0.090744495 0.12068208 -0.03265691
-0.04241892 0.06377459 0.12787811 -0.0059012384 -0.0034693535 0.017304769 -0.03461463 0.18551096
0.21322624 0.07577352 0.045986358 0.02392 0.009503998 -0.069235235 0.1250721 0.11423086
0.10522033 -0.005671781 0.069473416 0.051337346 -0.00644709 0.08227681 0.034931034 -0.018451408
-0.043071233 0.07037937 -0.08176463 0.13788791 -0.0031384504 0.0010067491 -0.037909858 -0.0054271035
0.10992214 0.014043338 -0.13942736 0.09413825 -0.07807182 0.19217849 -0.03313137 -0.07495443
0.06572503 0.042202294 0.042295735 0.014949329 0.10029835 -0.11378431 -0.07663311 0.0463942
0.15461916 0.20833784 0.047081076 -0.010044928 0.18822761 0.18492284 -0.010282923 -0.07866571
0.11210599 0.014652768 -0.11634328 0.10704894 0.0045337235 -0.009818664 0.09852772 0.010238152
0.00966804 -0.008833453 -0.05232975 -0.10565756 0.115236916 -0.1308921 0.11727902 0.16248505
-0.060786232 0.06343422 -0.0030563588 0.09250387 0.08867021 -0.018445801 0.013162095 0.18047966
-0.0176588 -0.11129418 -0.15096666 0.11616772 0.02244909 0.1064387 0.084361486 0.15163076
-0.046775658 -0.036809232 0.110056184 0.009543128 0.008190815 0.047585472 -0.0023137887 -0.031020973
0.16061985 -0.02527635 -0.029360406 -0.028546723 -0.036664434 0.10079857 0.05483652 0.053413425
0.1289097 0.07004393 0.12510607 -0.02923428 -0.042974003 0.15429261 0.0121346265 -0.0477398
00000000: 3605 cabd 0a27 05bd 4f02 1b3d c3d5 85bc
00000010: f571 183c b94b 41be b75e d23d 6c63 573d
00000020: 5d2c 25bc 47e6 50be 33ad 0bbd d5f7 a43d
00000030: 3594 123e 56fd 67bc c9b9 e0bd 8ecb de3d
00000040: b05b 18bd 2b2a 713d 7fd9 473d cc0e a0bd
00000050: 443b 433d e52f 78bd 78fe a13d 6e62 b7bc
00000060: 411e a2bb 8144 d03d 5bc8 c93d 8005 c0bc
00000070: add9 cf3c 8ad6 a8bd 0dd9 d9bd 513e 453d
00000080: 6ee3 b83c f89f 033e e8fe d8bc 58fb 643d
00000090: 3d39 f33c e9a2 a5bd 1db7 603d 69bb be3b
000000a0: 28af 50bd 5188 023d 1a0c 0dbd 8642 c63d
000000b0: 1a96 e23d cc3f 2abd 3746 83bd d05a 1f3a
000000c0: c8f0 d53c ca38 1cbb 5e6e 223e f578 a13c
000000d0: 1e7f 54bb 3c32 60bc a894 2d3d be2d 013e
000000e0: bbb6 8f3b cdc5 91bc 44d5 7dbd 845b 573d
000000f0: 4bda 33be 4f66 78bd f019 853d 10c2 44bc
00000100: 9f6a 94bc e3b1 183d 055e eb3d 531a 7c3c
00000110: d816 ffbd ebfe d3bd 2fb3 1e3c 2c75 983d
00000120: fd4c 2fbc 54b9 bdbd ab61 863d 66b7 18be
00000130: 0bd1 df3d 05ec f03d 0177 4dbc dc46 c4bc
00000140: 2502 0fbe 8a53 f4bb 94c9 a13d c6fe 9e3d
00000150: bd12 153e 3f00 913d df17 433d aa7c d9bd
00000160: f073 1e3e ad2b a13d a55a 42bb bc3b 383d
00000170: 9136 8dbd 3465 ce3d dc6e 81bc 61ca 0e3c
00000180: 1978 b6b9 25dc 493d 13f0 1a3e 14a7 65bd
00000190: 5a5a c73d e34f df3d e227 4cbd 9e25 263d
000001a0: 7927 0f3e 1f0e 03bd 909f 45bd aee5 daba
000001b0: 53ed 643d a3d5 073e 7125 423c 2502 b9bc
000001c0: 29c2 99bb a905 ba3d 8726 013c c545 993d
000001d0: e265 9f3d ebf2 51bd fd62 a63d 7355 a53d
000001e0: b52c 8a3d bd2c ddbb 2978 fd3c 5d6e db3d
000001f0: 5ee8 bc3d 6dcf aa3d 08e5 61bd 5430 053e
00000200: e800 4e3d c148 103e ce21 083e d042 013d
00000210: 2799 acba 3c98 813d 5606 babc 3f38 0bbc
00000220: 6e42 b93d f6bd 0e3d 2b14 073e e9e6 34bc
00000230: ceee d43b 40d8 b9bd 2b28 f73d 41c3 05bd
00000240: 76bf 2dbd 419c 823d 7bf2 023e 2d5f c1bb
00000250: 185e 63bb bbc2 8d3c 12c8 0dbd 96f6 3d3e
00000260: fb57 5a3e 262f 9b3d 315c 3c3d e0f3 c33c
00000270: a8b6 1b3c 34cb 8dbd e712 003e def1 e93d
00000280: c27d d73d 59da b9bb 1448 8e3d 1c47 523d
00000290: 1c42 d3bb bf80 a83d d813 0f3d 6827 97bc
000002a0: 766b 30bd 0f23 903d 3774 a7bd 7d32 0d3e
000002b0: 76ae 4dbb e5f4 833a 5e47 1bbd d8d5 b1bb
000002c0: dc1e e13d 0716 663c 0cc6 0ebe 8ecb c03d
000002d0: 1ee4 9fbd 70ca 443e c2b4 07bd b581 99bd
000002e0: d89a 863d 50dc 2c3d 4b3e 2d3d 08ee 743c
000002f0: 3969 cd3d c007 e9bd d2f1 9cbd d807 3e3d
00000300: 7c54 1e3e 8456 553e 16d8 403d 7b93 24bc
00000310: bdbe 403e 6a5c 3d3e b479 28bc 7d1b a1bd
00000320: d397 e53d 2a12 703c 6345 eebd 7a3c db3d
00000330: a18f 943b 76de 20bc e7c8 c93d ecbd 273c
00000340: b366 1e3c 30ba 10bc b857 56bd fe62 d8bd
00000350: 5501 ec3d 9408 06be fc2f f03d 7b62 263e
00000360: fcfa 78bd cde9 813d 314d 48bb ab72 bd3d
00000370: ba98 b53d a61b 97bc d4a5 573c a9cf 383e
00000380: 30a9 90bc 34ee e3bd 0197 1abe 57e9 ed3d
00000390: 27e7 b73c 88fc d93d b7c5 ac3d 1845 1b3e
000003a0: d597 3fbd 47c5 16bd 2365 e13d c85a 1c3c
000003b0: c532 063c fce8 423d efa2 17bb b21f febc
000003c0: 8879 243e 5910 cfbc 3c85 f0bc d1da e9bc
000003d0: 722d 16bd 7b6f ce3d 429c 603d 09c8 5a3d
000003e0: e800 043e 3173 8f3d ce1b 003e bb7c efbc
000003f0: 8205 30bd e2fe 1d3e 50d0 463c cf8a 43bd

fc2.bias f4 [64]
-0.0047909673 0.12701681 0.07488291 0.12482281 0.085742064 0.015842654 0.1229599 0.03722281
0.089621656 0.024753049 -0.014848509 0.06841012 0.06442584 -0.0471998 0.104189 0.07680831
0.047660444 0.0032483113 -0.011496675 -0.009828252 0.067397796 0.025615249 -0.031041209 0.10782896
-0.019816829 0.06745246 0.030847423 0.010735056 0.106325105 0.13104853 0.13423671 0.059948187
0.10979875 0.07390304 0.015813095 0.022135379 0.0263832 0.011071944 0.06656552 -0.037554994
0.081615575 -0.004918097 0.05421432 -0.034086905 0.033529676 0.05380615 0.023841124 0.13277565
0.06469457 -0.0057167327 0.041300964 0.08942204 0.017468214 0.112560414 0.117001064 0.09239973
0.09786467 0.0074227625 0.0035947277 -0.01844386 0.1019379 0.004829018 0.048202664 0.10228292
00000000: 8cfd 9cbb b210 023e 365c 993d 1aa3 ff3d
00000010: 8999 af3d 74c8 813c 66d2 fb3d f276 183d
00000020: 8f8b b73d e8c6 ca3c 2947 73bc 9b1a 8c3d
00000030: b2f1 833d 9454 41bd 0b61 d53d ad4d 9d3d
00000040: 9937 433d 9fe1 543b 8d5c 3cbc ad06 21bc
00000050: db07 8a3d 12d7 d13c 224a febc 6ed5 dc3d
00000060: e756 a2bc 8424 8a3d bcb3 fc3c 17e2 2f3c
00000070: fac0 d93d 9631 063e 5975 093e 3b8c 753d
00000080: 2bde e03d 7a5a 973d 778a 813c 4155 b53c
00000090: 9521 d83c 1967 353c 8153 883d 44d3 19bd
000000a0: 1126 a73d fd27 a1bb d60f 5e3d b69e 0bbd
000000b0: 6a56 093d d663 5c3d 764e c33c 57f6 073e
000000c0: 967e 843d 6e53 bbbb 332b 293d e722 b73d
000000d0: 8019 8f3c 1386 e63d 419e ef3d 123c bd3d
000000e0: 466d c83d a53a f33b 8695 6b3b 9417 97bc
000000f0: d1c4 d03d bd3c 9e3b 2870 453d b579 d13d

fc3.weight f4 [5, 64]
-0.15781426 0.12363343 -0.3078974 0.09835735 -0.14169438 0.19049178 -0.25724223 -0.07697789
0.22495657 -0.17608744 0.059946902 0.034258824 -0.13611352 -0.1715198 0.0930804 0.20868507
-0.15207218 -0.15912084 -0.20594667 0.062413663 -0.28415737 0.14071515 0.21447892 -0.03202857
-0.13522583 -0.14234361 0.18105987 0.007259261 0.16739734 0.06993374 -0.16202717 0.1780327
0.16386187 -0.014400873 -0.017222634 0.17650133 0.14699928 -0.08385935 -0.12709118 -0.24768496
0.087008715 -0.22402455 0.1651992 0.09114353 -0.099703245 -0.18715742 0.036475744 -0.17491578
-0.24933174 0.0925617 0.17223899 -0.042775117 -0.31859645 0.16460146 -0.17567457 0.1049412
0.27147645 0.053914115 0.053556044 0.039146326 0.116319925 0.121348515 -0.16347153 -0.17022441
0.029476691 0.13617022 0.13550198 0.19157594 0.09960703 -0.22319269 0.018489646 -0.20630445
-0.249442 -0.10713375 0.07326912 -0.05597674 0.22225446 0.07980946 0.034820147 -0.042880725
-0.08723311 0.26021108 -0.22899026 -0.25826094 0.19606936 0.030912025 -0.04142145 -0.26198384
-0.15653479 -0.09070896 -0.17960355 -0.22371632 0.15297887 0.05589927 0.05683489 0.0051303552
0.0751106 0.022793097 0.0023626427 -0.057151563 0.10986632 -0.21752349 -0.23750605 -0.16659664
0.12912875 0.09230443 -0.01606653 0.06898666 -0.13529907 0.18605001 0.15349777 -0.13024831
-0.16267422 -0.27313483 -0.062355638 0.19408241 -0.063894875 -0.003557754 0.12276897 -0.22616893
-0.23773958 -0.05060893 -0.23727642 -0.32603762 0.03261035 0.17915364 0.22221471 -0.23267259
-0.15117632 0.03032583 0.09355732 0.013809453 0.0789169 -0.20731936 -0.14520837 0.21303482
-0.19334388 0.17120692 -0.058208484 0.09527292 0.008181421 0.19226906 -0.18355617 -0.11927873
-0.18246742 -0.25633278 0.22713523 0.09242686 0.024956038 -0.17592373 -0.1081304 0.073956005
0.24146128 0.1908687 -0.17475356 0.11191078 -0.24268706 -0.17604521 -0.30017442 -0.13915381
-0.15954487 -0.2733355 0.008135356 -0.11590579 -0.10308255 -0.2342974 0.049101163 0.19894367
-0.13328764 0.12817717 -0.016938377 -0.0012009841 -0.11201733 0.055468738 -0.24290606 -0.055347744
0.18346412 0.1695379 -0.16172196 0.113714054 -0.18778381 0.02556734 -0.18007961 -0.07641194
0.043962732 -0.10989048 0.084181465 0.1335816 -0.20120107 0.12555191 -0.26126838 0.072587445
0.05063797 -0.23631032 -0.23253317 -0.25320774 -0.042514976 0.16161354 -0.19539511 0.18101421
0.12551126 0.15444207 -0.26509726 -0.095777035 -0.038731005 -0.2329601 -0.11977252 -0.11471939
0.039741695 -0.07244713 -0.1305584 -0.18742977 0.09961075 0.17134741 -0.035473067 0.11256729
-0.122472465 0.065612696 0.1549209 -0.21247444 -0.12300262 -0.21490118 0.15295061 0.0010276105
-0.16886657 -0.30850142 0.06279407 -0.157164 -0.11171878 0.25401875 -0.10254852 0.09158886
-0.2843472 -0.30336148 0.08597288 -0.14641012 -0.04795878 -0.28439146 -0.25424924 0.17212865
0.17945696 -0.055023864 0.18309578 -0.11053302 -0.10954801 0.008650463 -0.12609515 -0.25518954
-0.14346164 -0.041103963 -0.20997986 -0.06214688 -0.26509258 0.029780228 -0.13035 0.2352553
00000000: 109a 21be 8633 fd3d baa4 9dbe 946f c93d
00000010: 5518 11be 4710 433e 41b5 83be 96a6 9dbd
00000020: 045b 663e 4450 34be e28a 753d fb52 0c3d
00000030: 5861 0bbe e3a2 2fbe f0a0 be3d 8ab1 553e
00000040: cfb8 1bbe 93f0 22be afe3 52be 78a5 7f3d
00000050: 137d 91be a217 103e 5da0 5b3e 6430 03bd
00000060: a478 0abe 86c2 11be c267 393e 18df ed3b
00000070: 356a 2b3e 6c39 8f3d 73ea 25be 344e 363e
00000080: 68cb 273e a4f1 6bbc 7b16 8dbc c4bc 343e
00000090: fb86 163e 73be abbd 3124 02be 20a1 7dbe
000000a0: a031 b23d b166 65be fb29 293e 76a9 ba3d
000000b0: 3731 ccbd 32a6 3fbe 9767 153d 1f1d 33be
000000c0: d250 7fbe fd90 bd3d 6b5f 303e f634 2fbd
000000d0: 131f a3be 498d 283e 09e4 33be 69eb d63d
000000e0: f6fe 8a3e 0cd5 5c3d 955d 5b3d e657 203d
000000f0: 2439 ee3d 9285 f83d 1565 27be 4f4f 2ebe
00000100: 1a79 f13c 3570 0b3e 08c1 0a3e 7c2c 443e
00000110: c5fe cb3d a08c 64be 9977 973c 7941 53be
00000120: b96d 7fbe f168 dbbd 1f0e 963d de47 65bd
00000130: ac96 633e 2473 a33d 929f 0e3d b3a3 2fbd
00000140: 46a7 b2bd 633a 853e 6c7c 6abe c73a 84be
00000150: 68c6 483e 373b fd3c 8aa9 29bd bf22 86be
00000160: a84a 20be 9fc5 b9bd fee9 37be e415 65be
00000170: 7ea6 1c3e a2f6 643d b4cb 683d 8a1c a83b
00000180: 96d3 993d 97b8 ba3c 91d6 1a3b c217 6abd
00000190: 9801 e13d 7abe 5ebe c934 73be 4f98 2abe
000001a0: 543a 043e 1b0a bd3d f59d 83bc e148 8d3d
000001b0: d78b 0abe e583 3e3e 852e 1d3e d05f 05be
000001c0: 1294 26be 54d8 8bbe a068 7fbd 8abd 463e
000001d0: 51db 82bd 3529 69bb 4c6e fb3d d498 67be
000001e0: 0172 73be 4f4b 4fbd 97f8 72be 67ee a6be
000001f0: 6e92 053d 0d74 373e 418c 633e b941 6ebe
00000200: f7cd 1abe e06d f83c fb9a bf3d 0b41 623c
00000210: 2f9f a13d 874b 54be 81b1 14be cd25 5a3e
00000220: f0fb 45be de50 2f3e 056c 6ebd 731e c33d
00000230: 5e0b 063c 2ee2 443e 26f6 3bbe 6848 f4bd
00000240: bdd8 3abe 0d3e 83be 2396 683e 4b4a bd3d
00000250: 9b70 cc3c 5a25 34be 7973 ddbd 3f76 973d
00000260: a041 773e 1673 433e 99f2 32be 7b31 e53d
00000270: f582 78be 3245 34be 76b0 99be 567e 0ebe
00000280: bb5f 23be a1f2 8bbe 284a 053c 0460 edbd
00000290: f21c d3bd a8eb 6fbe 4d1e 493d e4b7 4b3e
000002a0: 8e7c 08be e040 033e 5ac2 8abc 576a 9dba
000002b0: 5869 e5bd 3033 633d 5ebc 78be 51b4 62bd
000002c0: 05de 3b3e 589b 2d3e 719a 25be eae2 e83d
000002d0: 664a 40be 9972 d13c ca66 38be dd7d 9cbd
000002e0: 4412 343d 430e e1bd 5567 ac3d 9dc9 083e
000002f0: a707 4ebe ae90 003e f8c4 85be baa8 943d
00000300: c369 4f3d 55fb 71be 2d1d 6ebe 72a4 81be
00000310: 2f24 2ebd 057e 253e a815 48be ca5b 393e
00000320: 0686 003e 1026 1e3e d4ba 87be c026 c4bd
00000330: 67a4 1ebd 188d 6ebe 4c4b f5bd 00f2 eabd
00000340: 30c8 223d 295f 94bd 1ab1 05be 97ed 3fbe
00000350: b900 cc3d b275 2f3e 354c 11bd ae89 e63d
00000360: d8d2 fabd f35f 863d 96a3 1e3e e692 59be
00000370: cce8 fbbd 0e0f 5cbe 169f 1c3e e3b0 863a
00000380: 5ceb 2cbe e6f3 9dbe 2d9a 803d 9aef 20be
00000390: d1cc e4bd bf0e 823e f504 d2bd f192 bb3d
000003a0: f595 91be 3252 9bbe 8d12 b03d 89ec 15be
000003b0: 6d70 44bd c29b 91be f52c 82be 7e42 303e
000003c0: 91c3 373e b460 61bd 767d 3b3e 235f e2bd
000003d0: b55a e0bd acba 0d3c 161f 01be 34a8 82be
000003e0: 9ce7 12be a15c 28bd f604 57be ba8d 7ebd
000003f0: 37ba 87be aaf5 f33c 787a 05be c4e6 703e

fc3.bias f4 [5]
-0.09325968 -0.031694453 -0.055946883 0.027399125 0.11099589
00000000: eefe bebd 0bd2 01bd 8f28 65bd 2174 e03c
00000010: d051 e33d
